checkpoint_cpu.pth (torch_old, 62584 bytes, 8 tensors)

input.weight f4 [128, 37]
0	0x3d2365e0	0.039892077
1	0x3d3b12dd	0.045672286
2	0xbe1abd25	-0.15111215
3	0xbe16e1ee	-0.14734623
4	0xbda6b397	-0.08139723
5	0x3d70562a	0.058675922
6	0xbe198b4c	-0.14994544
7	0x3ccd296d	0.025044167
8	0x3e37c831	0.1794746
9	0x3d8b8dfe	0.06814192
10	0xbd8e9ea9	-0.06963856
11	0xbd87e03f	-0.066345684
12	0xbe646210	-0.22303033
13	0x3d3d1066	0.046158217
14	0xbeaf81e3	-0.34278783
15	0xbdd713b0	-0.10501802
16	0x3d0a5ae0	0.03377807
17	0x3e6ea87c	0.23306459
18	0xbe1d5b1c	-0.15366787
19	0x3e76c033	0.24096756
20	0x3db71e05	0.08941273
21	0x3d3e37d7	0.04643997
22	0x3dbb4d5c	0.091456145
23	0xbd82d26a	-0.063877895
24	0xbeb572e4	-0.35439217
25	0xbc831d6f	-0.016005246
26	0x3d91f089	0.071259566
27	0xbe8c58be	-0.27411455
28	0x3d674642	0.056463487
29	0xbdbc3b5d	-0.0919101
30	0xbbfe71ce	-0.0077650314
31	0x3d79f18f	0.061021384
32	0xbe5d8209	-0.21631636
33	0xbd91f299	-0.0712635
34	0xbf09c07b	-0.53809327
35	0xbe896be9	-0.2684014
36	0xbd5fe3fb	-0.05466078
37	0x3e2eac2e	0.17057869
38	0x3bdad69e	0.0066784164
39	0x3d9893b3	0.074500464
40	0x3df046dc	0.11732265
41	0xbe34b292	-0.17646244
42	0x3e11a345	0.14222439
43	0x3b7a1910	0.003816191
44	0xbe227302	-0.15864184
45	0xbdc37dea	-0.095455006
46	0x3d848732	0.06471099
47	0x3e209ede	0.15685603
48	0xbda127cc	-0.07868919
49	0x3d8d5f48	0.06902939
50	0x3db3fb17	0.08788126
51	0x3dde4031	0.10852087
52	0x3e11595a	0.14194241
53	0x3b9d0604	0.004791977
54	0x3d1ef292	0.03880555
55	0xbda74eb2	-0.08169307
56	0x3dcdc25d	0.100468375
57	0xbd657670	-0.056021154
58	0xbe004396	-0.12525782
59	0xbe2946c3	-0.165309
60	0x3e32e8f5	0.17471679
61	0x3d7ac75f	0.06122529
62	0xbd11dd74	-0.035611585
63	0x3dfd01e4	0.12353876
64	0xbc992ffc	-0.018699639
65	0xbe38c3ca	-0.18043438
66	0xbdb9a51c	-0.09064695
67	0x3d9602e7	0.07324772
68	0x3e940f1b	0.28917775
69	0xbda6dd6e	-0.08147703
70	0xbc9805b2	-0.018557403
71	0xbe6ac671	-0.22927262
72	0x3d881665	0.066448964
73	0x3d3c2784	0.045936123
74	0x3cc51178	0.024056181
75	0x3dd0a0b5	0.101869024
76	0x3d7b2d90	0.06132275
77	0xbb031499	-0.002000129
78	0xbe3caeb0	-0.18426013
79	0xbe33c27f	-0.17554663
80	0x3da8ddda	0.0824544
81	0x3e1f5d84	0.15563017
82	0xbd49b8f3	-0.049248647
83	0xbeac1352	-0.3360849
84	0xbdfab85e	-0.122421965
85	0xbeb60822	-0.3555308
86	0x3df323ac	0.11872038
87	0x3da49f6a	0.08038218
88	0xbdc1be95	-0.09460179
89	0x3c8c49c4	0.017125018
90	0x3c76f890	0.01507391
91	0x3d43c117	0.047791567
92	0x3db0957a	0.086222604
93	0xbdc14fd7	-0.09439056
94	0xbedd313c	-0.43201625
95	0xbeb750f2	-0.35803944
96	0x3e17d33d	0.14826675
97	0x3e707102	0.23480609
98	0xbf077652	-0.5291492
99	0xbe2c36b4	-0.16817743
100	0x3e8badec	0.2728113
101	0x3e070df1	0.13188912
102	0xbead217f	-0.33814618
103	0xbe4b5b56	-0.1985906
104	0x3b71b743	0.0036882914
105	0xbdfb31c0	-0.122653484
106	0xbe17a55a	-0.1480917
107	0xbe7840e2	-0.24243501
108	0x3e377f1a	0.17919579
109	0xbd498614	-0.049200132
110	0xbc3efb11	-0.011656539
111	0x3e071433	0.13191299
112	0xbe4f33a9	-0.2023455
113	0x3eba18bf	0.36347005
114	0xbdd1342a	-0.10215028
115	0xbdedfd7b	-0.11620613
116	0xbdaf4413	-0.08557906
117	0x3e670263	0.22559504
118	0xbdba3294	-0.09091678
119	0xbdd2bab8	-0.1028952
120	0x3c8fc5e7	0.017550422
121	0x3d573f43	0.052550565
122	0xbd8f1842	-0.06987049
123	0x3a896eb4	0.0010485263
124	0xbe206cc6	-0.15666494
125	0xbe388083	-0.18017773
126	0x3da4fb75	0.08055774
127	0xbe65c63e	-0.22438905
128	0xbd4f4d57	-0.050610866
129	0xbe40a37c	-0.18812364
130	0xbe0c6e52	-0.13713959
131	0xbdb9f83f	-0.09080552
132	0x3d83f0ab	0.06442388
133	0xbe11e831	-0.1424873
134	0x3e3c8d8c	0.18413371
135	0xbddf506f	-0.10904013
136	0x3c193e6c	0.009353261
137	0xbeae16d1	-0.34001783
138	0x3e8284a5	0.25491825
139	0xbd57fb0c	-0.05272965
140	0xbedb9b51	-0.42891935
141	0x3d5f4fd7	0.0545195
142	0x3eba84da	0.36429483
143	0xbde720df	-0.112855665
144	0xbebdf8cb	-0.37103876
145	0x3c3d5c31	0.011557625
146	0x3d7a5db3	0.061124515
147	0x3b0d9737	0.0021605024
148	0xbc07b1ae	-0.008282108
149	0xbe15605e	-0.14587542
150	0xbdf1b8c6	-0.11802821
151	0xbdce9cff	-0.100885384
152	0xbcc4e8cf	-0.024036793
153	0x3bb2ff58	0.0054625683
154	0x3eaa1ee0	0.3322668
155	0xbddde0ef	-0.10833918
156	0x3dc3c991	0.0955993
157	0xbdcb1add	-0.09917233
158	0x3c0aeaf7	0.008478872
159	0xbd73de8c	-0.05953841
160	0xbb1ced70	-0.0023945235
161	0x3da56eb8	0.080777586
162	0xbe7dba46	-0.24778089
163	0xbd8427d4	-0.06452909
164	0xbd08b1db	-0.03337274
165	0x3bbfb597	0.0058505046
166	0xbbac90cd	-0.005266285
167	0xbda409e5	-0.080097
168	0xbdfe1995	-0.12407223
169	0xbceac9e2	-0.028660718
170	0x3e814756	0.25249738
171	0x3daea56e	0.08527647
172	0x3e05471d	0.13015409
173	0x3e95142c	0.29116952
174	0xbedcbecc	-0.43114316
175	0xbe033318	-0.1281246
176	0xbd84ffb8	-0.06494087
177	0xbfc88d30	-1.5668087
178	0xbdfb4187	-0.12268358
179	0x3daf795e	0.08568071
180	0x3e81912e	0.25306076
181	0x3e32212a	0.17395464
182	0x3eb11b42	0.3459111
183	0x3cc0fd85	0.023558388
184	0x3c3a8178	0.011383407
185	0xbe059f25	-0.1304899
186	0xbd00876a	-0.03137914
187	0x3e22ecca	0.1591064
188	0xbecaa342	-0.3957768
189	0xbd394bf7	-0.04523846
190	0x3bcccaf5	0.0062497803
191	0xbec68478	-0.3877294
192	0x3d7dcd24	0.061963215
193	0x3c191c81	0.009345175
194	0xbe453b79	-0.19260968
195	0xbe702ae6	-0.23453864
196	0xbe3e7dc2	-0.1860266
197	0x3d90b338	0.07065433
198	0x3ceda4fb	0.029009333
199	0xbe5cbe33	-0.2155693
200	0xbd281474	-0.04103513
201	0xbc832a18	-0.016011283
202	0xbcb4c252	-0.022065315
203	0xbf041f1b	-0.51609963
204	0xbe6c5b65	-0.23081739
205	0x3ce410ab	0.02783998
206	0xbe8cf921	-0.2753382
207	0x3e4cdf7e	0.2000713
208	0x3ba8a0a5	0.0051461034
209	0xbdf383d3	-0.11890378
210	0xbe1d6f69	-0.15374531
211	0xbe3bed38	-0.1835221
212	0x3dc7a7c3	0.09748795
213	0xbc4179bc	-0.011808809
214	0xbdc6ff09	-0.09716613
215	0x3e0ab03b	0.13543789
216	0xbeb5b99f	-0.3549318
217	0xbdd573bc	-0.10422465
218	0xbe549184	-0.20758635
219	0xbf18fe3c	-0.5976293
220	0x3e44a51d	0.1920361
221	0x3dba0483	0.09082892
222	0xbc9d7035	-0.019218544
223	0xbdb8748a	-0.09006603
224	0xbda81d7b	-0.08208748
225	0x3d4b7f36	0.049681865
226	0x3a16d6e0	0.0005754065
227	0xbd951a0b	-0.07280358
228	0xbe1a4407	-0.15065013
229	0xbcd4fcb5	-0.025999406
230	0xbe044c16	-0.1291965
231	0x3f03e69a	0.51523745
232	0xbe2ebda0	-0.17064524
233	0x3d8d2de4	0.068935186
234	0x3e085c76	0.13316521
235	0xbd9aca93	-0.07558169
236	0xbe2b565e	-0.16732165
237	0xbe1fb6ac	-0.15597028
238	0xbec5ab65	-0.38607326
239	0xbd85063d	-0.064953305
240	0x3dfd780e	0.12376414
241	0x3e84ca8f	0.2593579
242	0xbe886a5d	-0.2664365
243	0x3dd5ed65	0.1044567
244	0x3d5f9595	0.054586012
245	0xbeae7f1d	-0.34081355
246	0x3d7df4ee	0.06200116
247	0xbf119197	-0.5686278
248	0xbcd0cc4c	-0.025488041
249	0xbe0df3f0	-0.13862586
250	0x3e20d2a0	0.15705347
251	0x3c9ae8bd	0.018909806
252	0x3da7970d	0.081831075
253	0xbdb73ca0	-0.0894711
254	0xbddc41ea	-0.107547596
255	0xbe024f69	-0.12725605

input.bias f4 [128]
0	0xbceab9f9	-0.028653132
1	0x3d005b2b	0.031336945
2	0xbd832486	-0.06403451
3	0xbd357a3e	-0.044306032
4	0x3d2f5884	0.042809024
5	0xbe23d31a	-0.15998498
6	0x3c36986b	0.011144738
7	0x3d3e9a9f	0.046534177
8	0xbdd993fb	-0.10623928
9	0x3d7550c8	0.059891492
10	0xbcbdb5b4	-0.023157932
11	0xbb86cb49	-0.004113589
12	0xbdb4194e	-0.08793889
13	0xbdd19d02	-0.10235025
14	0xbd6f63ef	-0.058444913
15	0xbd98cd7e	-0.074610695
16	0x3d9fe7fd	0.0780792
17	0x3c553f07	0.013015515
18	0xbdbd576f	-0.09245192
19	0xbd35f5dd	-0.044423927
20	0xbddc07a7	-0.10743647
21	0x3d7f425c	0.062319145
22	0x3ddba79b	0.107253276
23	0xbdb71b1f	-0.0894072
24	0x3d24cc37	0.040233817
25	0x3e395cd0	0.18101811
26	0x3e078dd0	0.13237691
27	0xbd96ac97	-0.07357138
28	0xbcfaf41b	-0.030633977
29	0xbe4b214b	-0.19836919
30	0x3e042d0e	0.12907812
31	0x3de2b468	0.11069566
32	0xbdf565c0	-0.11982298
33	0x3d95bedf	0.073117964
34	0x3be2f111	0.00692571
35	0xbdfac43f	-0.12244462
36	0x3cad1192	0.021126542
37	0x3d1ae57a	0.037816502
38	0x3c9e425d	0.019318754
39	0x3c3f9cb5	0.011695077
40	0x3d78d841	0.06075311
41	0x3da17918	0.07884425
42	0x3e807909	0.25092342
43	0x3cf330b9	0.029686319
44	0x3cd1bd86	0.025603067
45	0xbd75259d	-0.059850324
46	0x3d8f94ca	0.07010801
47	0x3d013d5b	0.031552654
48	0x3caec3d2	0.021333609
49	0xbc57e6e6	-0.013177609
50	0x3dcce9c7	0.10005527
51	0xbcf017af	-0.029308168
52	0x3ce43f61	0.027862253
53	0x3d8bf82d	0.06834445
54	0x3d637d32	0.055539317
55	0x3c902fca	0.017600913
56	0xbd94c74e	-0.07264577
57	0xbd09a89c	-0.033608064
58	0x3e06c032	0.13159254
59	0xbda7a6e5	-0.081861295
60	0xbdd71673	-0.10502329
61	0xbc8ced05	-0.017202863
62	0x3d56a0a1	0.05239928
63	0xbd516376	-0.051120244
64	0x3e1d09ca	0.15335765
65	0x3d4209b6	0.047372542
66	0xbd22b3ec	-0.039722368
67	0xbdf8460a	-0.12122734
68	0xbe1e2e0d	-0.15447254
69	0xbd977676	-0.073956415
70	0xbc4cec67	-0.012507535
71	0xbdbdf890	-0.09275925
72	0x3dd1a872	0.102372065
73	0xbe26494d	-0.162389
74	0xbd4f97dd	-0.050681937
75	0xbd42e33f	-0.04758
76	0x3e056ca9	0.13029732
77	0xbe07a719	-0.13247336
78	0x3df47c69	0.11937792
79	0x3b85d0cc	0.0040837284
80	0x3c59c637	0.013291887
81	0x3d781868	0.06057015
82	0x3d99598d	0.074877836
83	0x3c529d32	0.012854861
84	0xbd250150	-0.040284455
85	0x3e49158f	0.1963713
86	0x3d16252e	0.03665655
87	0xbdbdd604	-0.09269336
88	0xbdfd8487	-0.12378793
89	0xbd2f3c91	-0.04278237
90	0x3de7e357	0.113226585
91	0xbccb3d3e	-0.024809476
92	0xbdab0761	-0.08351017
93	0xbe3f9de3	-0.18712573
94	0xbd385dec	-0.045011446
95	0x3d67a1f6	0.056550942
96	0x3c8935e6	0.016749334
97	0xbe2aa482	-0.16664317
98	0xbca8c9c2	-0.020604018
99	0x3de75a64	0.112965375
100	0xbe44fd4c	-0.1923725
101	0xbe4bbb90	-0.19895768
102	0x3da2c4dc	0.07947704
103	0x3e8f0368	0.27932286
104	0xbe8993d8	-0.26870608
105	0xbe68fa65	-0.22751768
106	0xbdb07be3	-0.086173795
107	0x3da600d8	0.0810563
108	0xbde9eb02	-0.11421777
109	0xbd4f9ed8	-0.050688595
110	0x3dbb3380	0.09140682
111	0xbdfb10c2	-0.12259056
112	0xbdd18870	-0.102311015
113	0xbdc28baa	-0.09499295
114	0xbc2455cd	-0.010030222
115	0x3e084c54	0.13310367
116	0x3da7359c	0.08164522
117	0x3dc70d88	0.09719378
118	0xbda40363	-0.080084585
119	0xbdcd912c	-0.10037455
120	0xbcd7f7bb	-0.026363244
121	0x3bd15ab3	0.006388986
122	0xbdfe692a	-0.12422402
123	0xbdaf5f65	-0.08563117
124	0xbd069ca9	-0.032864247
125	0x3d88c46a	0.06678088
126	0x3e49576c	0.19662255
127	0x3cae9559	0.021311449

fc1.weight f4 [64, 128]
0	0xbe214762	-0.15749887
1	0xbc824ffd	-0.015907282
2	0x3e34b0ff	0.17645644
3	0x3e6f8c7e	0.23393437
4	0x3ed1029e	0.4082231
5	0x3ec699ff	0.38789365
6	0x3d54f0f2	0.051987596
7	0x3db55180	0.088534355
8	0x3db87651	0.09006942
9	0x3e40771f	0.18795441
10	0x3c594819	0.013261818
11	0xbdbaee7d	-0.09127519
12	0x3e118156	0.14209494
13	0x3de62063	0.11236646
14	0xbc2f5eb5	-0.010703732
15	0x3a82688a	0.0009949368
16	0x3de44b77	0.11147206
17	0xbd509488	-0.0509229
18	0xbe21b099	-0.15790023
19	0xbd94b16c	-0.07260403
20	0xbcd31140	-0.025765061
21	0x3e2871b3	0.16449623
22	0xbd2b26e2	-0.04178513
23	0x3e65f7e4	0.22457844
24	0x3d7f5336	0.062335216
25	0xbd7c5375	-0.06160303
26	0x3dace69a	0.08442421
27	0xbe60b07f	-0.21942328
28	0x3ddb7372	0.10715379
29	0x3d11cba6	0.035594605
30	0xbe794165	-0.24341352
31	0xbe13609c	-0.14392322
32	0x3c9053ee	0.017618146
33	0xbe39c9aa	-0.18143335
34	0x3cf1868f	0.029483108
35	0x3c8a8670	0.016909808
36	0x3c2664aa	0.010155836
37	0x3e6feb9e	0.23429725
38	0x3d312a51	0.043253247
39	0xbf0abe90	-0.54197025
40	0xbe3020d6	-0.17200026
41	0xbcaf6cde	-0.021414217
42	0xbe39dea0	-0.18151331
43	0x3e3c5bfc	0.18394464
44	0xbd436469	-0.04770318
45	0x3d0381b9	0.032106135
46	0xbcbd14ac	-0.023081146
47	0xbed15720	-0.40886784
48	0xbd95f9ef	-0.07323062
49	0xbd7a5a60	-0.061121345
50	0xbe2ede6f	-0.17077039
51	0xbdf0b79f	-0.11753773
52	0xbe37835e	-0.17921206
53	0xbe4c58cd	-0.1995575
54	0x3d89c2a0	0.06726575
55	0x3bd49cfc	0.0064884406
56	0xbc34eae8	-0.011042334
57	0xbc683b91	-0.014174358
58	0xbd8b36e8	-0.06797582
59	0xbad328ef	-0.0016110222
60	0x3eb0f89e	0.3456468
61	0x3e47dc08	0.19517529
62	0x3e17d4a4	0.1482721
63	0x3d42981e	0.04750835
64	0x3e285f4f	0.16442607
65	0x3e17753a	0.14790812
66	0xbd88e0e7	-0.06683522
67	0x3d8d74be	0.069070324
68	0xbd326238	-0.0435507
69	0xbe821a7f	-0.2541084
70	0x3dc5ddc1	0.09661437
71	0xbc246523	-0.0100338785
72	0x3d968a15	0.07350556
73	0xbe2e0b40	-0.16996479
74	0xbc59e381	-0.01329887
75	0x3d2030e4	0.039109126
76	0x3e0a4277	0.13501917
77	0xbe8665ae	-0.2624945
78	0xbe6a576c	-0.22884911
79	0x3cebea4f	0.02879825
80	0xbe8aae5a	-0.27086145
81	0x3b8cbc0e	0.004294879
82	0xbd73b711	-0.059500758
83	0xbef494e4	-0.47769845
84	0x3d8fabdf	0.07015204
85	0xbe94657f	-0.28983685
86	0xbe3807ff	-0.179718
87	0xbe11fe63	-0.14257197
88	0x3e85f5c4	0.26164067
89	0x3c9b1a89	0.018933551
90	0x3c254361	0.010086865
91	0x3de1d608	0.11027151
92	0xbe18d3d2	-0.14924553
93	0x3dbd0da8	0.0923112
94	0xbd8c4c9e	-0.06850551
95	0x3dd0a1e8	0.10187131
96	0xbd937f3b	-0.07202002
97	0x3c1af26f	0.009457215
98	0xbbb5a39c	-0.0055431854
99	0x3d33040f	0.043705042
100	0x3e5071d8	0.20355928
101	0x3cc9fb97	0.0246561
102	0x3db80b2f	0.08986508
103	0x3e373bf9	0.17893972
104	0xbc80bbcb	-0.015714547
105	0x3d974128	0.073854744
106	0xbdae21b5	-0.08502523
107	0xbc395820	-0.011312515
108	0x3da5108d	0.080597974
109	0xbe7b585c	-0.24545425
110	0xbcc8f715	-0.02453188
111	0x3db0e28a	0.08636959
112	0xbba20441	-0.0049443548
113	0x3e2a618d	0.16638775
114	0xbdf35e3a	-0.11883207
115	0xbd89c40d	-0.06726847
116	0x3ce12729	0.027484493
117	0x3c88063d	0.016604537
118	0xbefbb84a	-0.4916404
119	0xbbd33361	-0.006445334
120	0x3d94f9d5	0.07274214
121	0x3bc7823f	0.0060885246
122	0x3d0a5c27	0.03377929
123	0x3df9f99e	0.12205814
124	0x3d8027a0	0.06257558
125	0xbcb09ce9	-0.021559196
126	0x3c0a0cc2	0.008425893
127	0xbedd7343	-0.43252
128	0x3d32bc57	0.043636646
129	0xbd5daecd	-0.05412178
130	0xbd7c29ec	-0.061563417
131	0xbcdbf6e6	-0.026851129
132	0x3dcaa12c	0.09894022
133	0x3d94fcf2	0.07274808
134	0x3cbba910	0.022907764
135	0xbee36858	-0.44415545
136	0x3de963e5	0.113960065
137	0xbcca663f	-0.024706958
138	0xbdf15f6c	-0.117857784
139	0xbd30105d	-0.042984355
140	0xbea85552	-0.32877594
141	0xbdefe6f2	-0.11713971
142	0xbc8bdc97	-0.017072959
143	0xbbdc4dd0	-0.006723143
144	0xbe425b3f	-0.1898012
145	0x3da37fe0	0.079833746
146	0x3cf8fbee	0.030393567
147	0x3d6ef3ff	0.05833816
148	0xbdbc272c	-0.09187159
149	0xbe3e0696	-0.185572
150	0x3e1f7e39	0.15575494
151	0xbe89d648	-0.26921296
152	0xbe4edff0	-0.20202613
153	0xbc919200	-0.017769814
154	0xbe4a76f7	-0.19771944
155	0xbe2909a2	-0.16507581
156	0x3d435fab	0.047698658
157	0xbe512a5b	-0.20426314
158	0xbe131173	-0.14362125
159	0xbd3de8fe	-0.046364777
160	0xbe083e96	-0.13305125
161	0xbe9595c2	-0.2921582
162	0xbd764712	-0.06012637
163	0xbea82d24	-0.3284694
164	0xbde07ad2	-0.10960926
165	0xbe1998a1	-0.1499963
166	0xbdb7fc0c	-0.08983621
167	0xbe877f3b	-0.26464257
168	0xbe45787f	-0.19284247
169	0xbe8ab970	-0.27094603
170	0xbdbd7b70	-0.092520595
171	0xbe19689c	-0.14981312
172	0xbe365437	-0.17805563
173	0xbea0a803	-0.31378183
174	0xbe18488e	-0.14871427
175	0x3d4eb5cc	0.050466344
176	0xbe327af2	-0.17429712
177	0xbddeab52	-0.108725205
178	0x3dab69e6	0.08369808
179	0xbde8459b	-0.11341401
180	0xbd4c5797	-0.04988822
181	0x3e1444dd	0.14479394
182	0x3e7d2167	0.24719773
183	0xbd8c477a	-0.068495706
184	0xbd12a191	-0.035798613
185	0xbe9290e2	-0.28626162
186	0xbe043bb2	-0.12913397
187	0x3d2536a8	0.040335327
188	0x3e13931a	0.14411584
189	0xbe209c98	-0.15684736
190	0x3d78db00	0.06075573
191	0xbd5182f0	-0.051150262
192	0x3de64470	0.11243522
193	0xbc327eff	-0.010894536
194	0x3df3ec61	0.1191032
195	0x3e4b1f52	0.19836167
196	0x3e4b09d4	0.19827968
197	0xbe024d66	-0.12724838
198	0xba08e997	-0.0005222796
199	0xbea541bc	-0.32276714
200	0xbeb5e7ef	-0.35528514
201	0x3dbcadc2	0.09212829
202	0x3da61b48	0.08110672
203	0xbd19dc2d	-0.03756349
204	0xbd02dcf1	-0.031948987
205	0xbe5cf06a	-0.21576086
206	0xbe2b365a	-0.16719952
207	0x3d0898b3	0.03334875
208	0xbd1882af	-0.037234005
209	0x3db168eb	0.0866259
210	0xbe75583b	-0.23959439
211	0xbe3e953d	-0.18611617
212	0xbc1c05db	-0.00952288
213	0xbe896f8d	-0.2684292
214	0x3bdec628	0.0067985244
215	0xbe380beb	-0.17973296
216	0xba43651f	-0.0007453728
217	0xbd9f0c4d	-0.07766018
218	0xbeb05459	-0.34439352
219	0xbe2f5343	-0.17121606
220	0xbc1c6a8d	-0.009546888
221	0x3cc32204	0.02381993
222	0xbb6c0ff7	-0.0036020258
223	0xbe9d10dc	-0.30676925
224	0x3c67b7e3	0.014142963
225	0xbd3ab4c2	-0.04558254
226	0xbe3178a3	-0.17331176
227	0x3c9ba892	0.019001279
228	0xbdba0a6c	-0.09084019
229	0x3e1ea341	0.15491964
230	0xbd9ec9eb	-0.077533565
231	0x3d883cfb	0.06652256
232	0xbd0c9c0d	-0.03432851
233	0xbe6c9515	-0.23103745
234	0x3d3841ae	0.044984512
235	0xbc539b7b	-0.012915487
236	0x3c4aaa0c	0.012369644
237	0xbe895b9c	-0.26827705
238	0xbe0ef2db	-0.1395983
239	0xbe233a72	-0.15940264
240	0xbe3a1aeb	-0.18174331
241	0x3d7468aa	0.059670128
242	0xbe534859	-0.20633067
243	0xbe6018ac	-0.21884412
244	0xbd18ee47	-0.037336614
245	0x3e495161	0.1965995
246	0x3dd1a413	0.10236373
247	0xbd59c166	-0.053162955
248	0xbe532d51	-0.20622756
249	0xbd7c0453	-0.06152756
250	0x3d5c6472	0.05380673
251	0xbdbe0392	-0.09278025
252	0xbe85b9b8	-0.26118255
253	0xbd95700f	-0.07296764
254	0xbc2d571e	-0.010579852
255	0xbcfc0d83	-0.030768162

fc1.bias f4 [64]
0	0xbc46964c	-0.0121207945
1	0xbe143317	-0.14472614
2	0xbbb0a797	-0.005391072
3	0xbcb17db4	-0.021666385
4	0x3d9f1906	0.07768445
5	0xbd8474e9	-0.06467611
6	0xbd6d26dc	-0.057898387
7	0x3cba477c	0.022739165
8	0x3c4fdd2b	0.012687008
9	0xbda8fc9b	-0.08251306
10	0x3db218c6	0.086961314
11	0xbe168264	-0.14698178
12	0xbd589935	-0.052880485
13	0xbcd0a587	-0.025469555
14	0xbdcb90a7	-0.099396996
15	0x3e19f51f	0.15034913
16	0x3e8e5dbc	0.2780589
17	0xbc38a540	-0.011269867
18	0xbdd898ea	-0.10576041
19	0xbe3e4ef7	-0.1858481
20	0x3d45716c	0.04820387
21	0x3d931697	0.07182043
22	0x3b7fe5e3	0.0039046935
23	0xbcbce01e	-0.023056086
24	0x3c731c48	0.014838286
25	0x3cb87372	0.022515986
26	0xbbf1cf16	-0.007379423
27	0xbd41d544	-0.047322527
28	0x3c7e5b9e	0.015524773
29	0x3d58d88b	0.052940886
30	0x3cbaaf4c	0.022788666
31	0x3e13669a	0.14394608
32	0xbb29ba3c	-0.0025898358
33	0x3da78c3e	0.08181046
34	0x3dde6a75	0.10860149
35	0xbdbd73fb	-0.09250637
36	0xbc795850	-0.015218809
37	0x3d0888b2	0.033333488
38	0x3c21bb05	0.009871249
39	0x3d366074	0.04452558
40	0x3b0dd597	0.0021642202
41	0x3e85e7ca	0.26153404
42	0x3d5b6f33	0.053572845
43	0xbd4d8abb	-0.05018113
44	0x3d1af2bd	0.03782915
45	0x3cd44250	0.025910527
46	0xbc1fc86e	-0.009752376
47	0xbdb54bc4	-0.08852342
48	0xbdaa16a8	-0.083051026
49	0xbd3e243f	-0.046421286
50	0xbd813e32	-0.06310691
51	0xbe3d6572	-0.1849573
52	0xbde7b4ff	-0.11313819
53	0xbcb4f480	-0.022089243
54	0xbd4a6ee3	-0.049422156
55	0x3b3ba220	0.002863057
56	0xbced2b70	-0.028951377
57	0x3cd21054	0.025642551
58	0x3c123e79	0.008926027
59	0x3d7a5ba0	0.061122537
60	0x3c98100e	0.018562343
61	0xbdc89e96	-0.09795873
62	0xbdd30d96	-0.10305326
63	0x3d093e94	0.033506945

fc2.weight f4 [32, 64]
0	0x3dbcf338	0.09226078
1	0x3edaee7f	0.42760083
2	0x3ebe32d2	0.37148148
3	0x3ec0976a	0.3761552
4	0xbda19ed6	-0.07891624
5	0x3cbcc195	0.023041526
6	0x3e7c4e12	0.24639156
7	0x3c96523d	0.018349761
8	0xb9a3684b	-0.00031167487
9	0xbd43ab9e	-0.04777109
10	0x3eaa55a9	0.3326848
11	0x3d91c7af	0.07118165
12	0xbe55e99f	-0.208899
13	0x3c7b3501	0.015332461
14	0xbd656f96	-0.05601462
15	0x3daaa77d	0.08332727
16	0xbc2f7659	-0.010709369
17	0xbd9679fb	-0.07347485
18	0x3d8321a5	0.064029016
19	0xbd4dbcac	-0.05022876
20	0xbdedf3b9	-0.11618752
21	0xbe307686	-0.17232713
22	0x3cfd0caa	0.030889828
23	0xbdac9bf1	-0.08428181
24	0xbe319831	-0.17343213
25	0xbe95b5ca	-0.29240257
26	0x3dbec7b1	0.09315432
27	0xbd742b72	-0.059611745
28	0x3dcfb8e0	0.10142684
29	0xbd8f767d	-0.07005022
30	0xbe2023c7	-0.15638648
31	0x3e67ffc6	0.22656164
32	0x3e01240a	0.12611404
33	0xbed17911	-0.4091268
34	0x3dfee4e7	0.124460034
35	0xbd31d3c3	-0.043414842
36	0xbdad90ba	-0.0847487
37	0x3dbed73d	0.09318397
38	0xbd6e0f77	-0.058120217
39	0x3e01cc39	0.12675561
40	0x3e82260d	0.25419655
41	0x3dbd9495	0.092568554
42	0x3bba18b0	0.0056792125
43	0x3de8440c	0.11341104
44	0xbeca98c5	-0.3956968
45	0xbc6cbd09	-0.014449366
46	0x3e0a81ee	0.13526127
47	0x3de27804	0.110580474
48	0x3d6364c6	0.055516027
49	0x3f176cad	0.591502
50	0xbea74cee	-0.3267588
51	0xbdd4bb94	-0.1038734
52	0xbdae8a86	-0.08522515
53	0x3d8e97e0	0.069625616
54	0x3bf918e0	0.0076018423
55	0x3ddae299	0.10687751
56	0xbdf11813	-0.1177217
57	0xbe3c4eb9	-0.18389405
58	0x3d3dfa23	0.046381127
59	0x3de5d768	0.11222726
60	0xbd8871c8	-0.06662327
61	0xbd5efa78	-0.054438084
62	0x3e1bfc70	0.15233016
63	0x3ca166a8	0.01970227
64	0xbd1a8a87	-0.037729766
65	0x3e991090	0.2989545
66	0x3d33fd82	0.043942936
67	0xbd26e89e	-0.040749185
68	0x3df17282	0.11789419
69	0x3ceb9ab5	0.028760293
70	0x3d1c44ea	0.03815166
71	0x3b29ab7f	0.0025889573
72	0x3eae043b	0.33987603
73	0x3d930545	0.071787395
74	0x3ca1a176	0.01973031
75	0x3d9b247f	0.075753205
76	0x3dce2c99	0.100671
77	0xbd96dc21	-0.07366205
78	0xbc068759	-0.00821098
79	0xbdf5301a	-0.11972065
80	0xbe33f668	-0.17574465
81	0xbe3050f4	-0.17218381
82	0x3e5e9200	0.21735382
83	0x3e0f9059	0.14019908
84	0xbea67ea7	-0.32518503
85	0xbd365679	-0.04451606
86	0xbe0c9a51	-0.13730742
87	0xbdf3b13b	-0.118990384
88	0xbe3bea5e	-0.18351123
89	0xbe8a7567	-0.27042696
90	0x3daa2a1e	0.083088145
91	0xbd2bdee4	-0.041960612
92	0x3d874941	0.06605769
93	0xbdf43b69	-0.11925394
94	0xbea437b7	-0.32073757
95	0xbdb9f8d3	-0.090806626
96	0x3e08b410	0.13349938
97	0xbe931e66	-0.2873413
98	0xbe40d2cf	-0.18830417
99	0xbe4100cb	-0.18847959
100	0xbda49c17	-0.08037584
101	0xbc77b5f3	-0.015119064
102	0xbb5c4791	-0.0033611993
103	0xbdc8fb69	-0.09813578
104	0x3e36fdcf	0.17870258
105	0x3cc6958a	0.024241228
106	0xbd0924f7	-0.033482518
107	0x3e1eb30c	0.15497988
108	0x3e039c68	0.12852633
109	0x3e396fe2	0.18109086
110	0xbbf79e4f	-0.0075567137
111	0x3da9d1db	0.0829198
112	0x3e285fc6	0.16442785
113	0x3d306943	0.043069135
114	0x3ec4f2ab	0.3846639
115	0xbe3b6098	-0.18298566
116	0xbdb5b48d	-0.08872328
117	0x3dd8be3b	0.105831586
118	0x3d9699b8	0.07353538
119	0x3d7ee853	0.06223328
120	0x3e0645bc	0.13112539
121	0x3cf75537	0.030192
122	0xbcd6a1c4	-0.026200183
123	0x3dd535a8	0.10410625
124	0xbe6de0a9	-0.23230232
125	0xbdaae903	-0.08345225
126	0xbdfb63e7	-0.12274914
127	0xbe5305b7	-0.20607649
128	0x3e224c43	0.15849404
129	0xbdb8079e	-0.08985828
130	0x3e483a6f	0.1955354
131	0x3e0a82d3	0.13526468
132	0x3e2fc322	0.17164281
133	0x3e05e2d6	0.13074812
134	0xbd1eacdd	-0.038739074
135	0x3debc351	0.11511863
136	0x3dc94154	0.098269135
137	0x3df624c5	0.12018732
138	0x3e93d7f5	0.288757
139	0xbb26144a	-0.0025341683
140	0x3c33c8cd	0.010973168
141	0x3e1434d7	0.14473282
142	0x3e8342d2	0.25636917
143	0xbd275962	-0.040856726
144	0xbd7ced70	-0.061749876
145	0xbd3fdc7b	-0.046841126
146	0x3d0d48e1	0.03449333
147	0xbe5193b5	-0.20466502
148	0x3e0e0c33	0.13871841
149	0x3e586533	0.21132354
150	0x3e186216	0.14881167
151	0x3d9ba916	0.0760061
152	0x3e223165	0.15839155
153	0x3ef4214d	0.47681656
154	0x3e2d86e2	0.16945985
155	0x3e946db2	0.2898994
156	0x3d9106fc	0.0708141
157	0x3e047831	0.12936474
158	0x3e98a121	0.29810432
159	0x3d35c848	0.044380456
160	0x3c8fc15c	0.017548256
161	0x3eb2ad17	0.34897682
162	0x3dab9382	0.08377744
163	0x3ec569b5	0.3855721
164	0x3dcf7694	0.10130039
165	0x3e00b69a	0.12569657
166	0x3cb08b91	0.021550925
167	0xbddc9d3d	-0.10772178
168	0xbd13a6b1	-0.03604764
169	0xbdab66d7	-0.083692245
170	0xbcfb7da1	-0.030699553
171	0xbe8db270	-0.276752
172	0x3ee07376	0.4383809
173	0xbe02d676	-0.12777123
174	0x3e8a4dcb	0.27012476
175	0xbe3dd1cb	-0.18537061
176	0xbec7f2fe	-0.39052576
177	0xbdc58cce	-0.09645997
178	0x3d8b4444	0.0680013
179	0x3deab6d8	0.11460656
180	0xbd857886	-0.06517129
181	0x3dcde03b	0.10052534
182	0xbba2250c	-0.004948264
183	0x3e07c26d	0.13257761
184	0x3e69f756	0.22848257
185	0x3eb980e2	0.36231142
186	0x3e9c3815	0.30511537
187	0x3dc94f15	0.09829537
188	0x3ee782ce	0.45216984
189	0xbde8d6af	-0.11369073
190	0x3e8345cf	0.25639197
191	0xbbab8dc5	-0.005235406
192	0xbd82e8d3	-0.06392064
193	0xbd9b2a8e	-0.07576476
194	0x3d92c77d	0.071669556
195	0x3d8e4a32	0.069477454
196	0x3b1a1fba	0.0023517446
197	0xbd36beda	-0.044615604
198	0xbdc00256	-0.093754455
199	0xbde93cd6	-0.11388557
200	0xbdc034b7	-0.093850546
201	0xbdbd8c42	-0.09255268
202	0xbdd2a25c	-0.10284874
203	0x3d700ff0	0.05860895
204	0xbddb01e3	-0.10693719
205	0x3d755b84	0.05990173
206	0x3d52f1c8	0.05150011
207	0xbd148374	-0.036258176
208	0xbc01a9bb	-0.007914002
209	0x3d45824d	0.048219968
210	0xbe09be9a	-0.13451615
211	0x3dc968fb	0.098344766
212	0x3db312b6	0.08743803
213	0x3df44920	0.1192801
214	0xbd47df18	-0.048796743
215	0x3d9d2802	0.076736465
216	0xbd89eca3	-0.06734588
217	0x3c9f49a8	0.019444302
218	0x3d99a820	0.075027704
219	0x3c110659	0.008851611
220	0x3d3b3ce0	0.04571235
221	0xbd1ef8ef	-0.03881162
222	0xbdb4f40e	-0.08835612
223	0x3d810c2b	0.06301149
224	0xbe116631	-0.14199139
225	0x3cb31340	0.021859765
226	0xbca545d4	-0.020174898
227	0xbd1036fc	-0.035208687
228	0xbe08a83c	-0.13345426
229	0xbdd9205d	-0.10601876
230	0xbd921e40	-0.07134676
231	0x3c93ece5	0.018057296
232	0x3d08c5b7	0.03339168
233	0xbe038727	-0.12844525
234	0xbd465c53	-0.04842789
235	0xbe01167c	-0.12606233
236	0x3d95df89	0.073180266
237	0xbdeb34c0	-0.11484671
238	0xbc88fba8	-0.016721562
239	0xbce4776f	-0.027888982
240	0xbd927554	-0.07151285
241	0x3da1f875	0.079087175
242	0x3d5b0c3c	0.053478464
243	0x3d85950e	0.065225706
244	0x3db4778e	0.08811866
245	0xbd7fbad8	-0.062434047
246	0x3d07bf16	0.033141218
247	0x3d80c8a2	0.06288268
248	0xbd5b4c5d	-0.053539623
249	0xbc27a090	-0.010231152
250	0xbc939b2d	-0.01801833
251	0xbe19c1e1	-0.15015365
252	0xbd141a1b	-0.03615771
253	0xbc750180	-0.014953971
254	0xbdca4279	-0.0987596
255	0x3dab16ae	0.08353935

fc2.bias f4 [32]
0	0x3e268d3a	0.16264811
1	0xbd9213e4	-0.071327
2	0xbdea1767	-0.11430245
3	0xbe1801e9	-0.14844479
4	0xbd1b4f88	-0.037917644
5	0xbd20831d	-0.03918754
6	0x3ed9c481	0.42532733
7	0x3e009e11	0.12560298
8	0xbdb51014	-0.08840957
9	0x3e920cdd	0.2852544
10	0xbce1f8ac	-0.027584396
11	0x3b3f780b	0.0029215838
12	0x3d983f73	0.07433977
13	0x3eaf0ad3	0.34187946
14	0x3eaeb67a	0.34123594
15	0xbe0cf707	-0.13766108
16	0xbc9ae672	-0.018908713
17	0x3d45b6fb	0.048270207
18	0xbd888bba	-0.06667276
19	0x3caafaac	0.020871483
20	0x3e203a7e	0.15647313
21	0xbdbdfc69	-0.09276659
22	0x3d8b0ab5	0.067891516
23	0x3dbeb98b	0.09312733
24	0x3e6b2c84	0.229662
25	0xbe9e0ad9	-0.3086765
26	0xbcddea83	-0.027089363
27	0xbca23a3d	-0.01980316
28	0xbdcd9043	-0.10037281
29	0x3e23afff	0.15985106
30	0x3df2d798	0.118575275
31	0x3e38b5ab	0.18038051

output.weight f4 [4, 32]
0	0x3e1aedd8	0.15129793
1	0x3da4ff6e	0.08056532
2	0xbe84687e	-0.2586097
3	0x3da485a5	0.08033303
4	0xbe2d328b	-0.16913812
5	0xbeb978e0	-0.36225033
6	0x3e80bb8a	0.2514308
7	0x3ecd3a14	0.40083373
8	0x3de2c357	0.11072414
9	0x3ea2f016	0.31823796
10	0xbce8ec25	-0.028432915
11	0xbe1029b3	-0.14078407
12	0xbe1d3977	-0.15353952
13	0x3e55d6af	0.20882677
14	0x3d6d4dfb	0.057935696
15	0xbecca642	-0.39970595
16	0xbc28d0be	-0.010303674
17	0x3d81ecfb	0.063440286
18	0x3e76337a	0.24043074
19	0x3ced8cfe	0.028997894
20	0x3d6f9048	0.058487207
21	0x3f092f93	0.5358822
22	0x3d8bb7fb	0.06822201
23	0x3dfa9336	0.122351095
24	0x3db2baec	0.08727059
25	0xbe0f64bd	-0.14003272
26	0x3d57f72c	0.052725956
27	0x3ec23150	0.37928247
28	0xbe0161a3	-0.12634902
29	0x3d771c56	0.060329758
30	0x3e8b7813	0.27240047
31	0xbf183173	-0.59450454
32	0x3e8396ab	0.25700888
33	0x3e9ad02f	0.30236956
34	0xbe5fdf79	-0.21862592
35	0xbbee2d7b	-0.0072686053
36	0x39d3c9de	0.0004039546
37	0xbddc80db	-0.10766765
38	0x3d4c6e1b	0.049909692
39	0x3e86a06e	0.26294273
40	0x3dee8c62	0.1164787
41	0x3d504b2f	0.05085295
42	0xbe19c201	-0.15015413
43	0x3e9db6aa	0.30803424
44	0x3e705cf9	0.23472966
45	0x3e85d33a	0.26137716
46	0x3e6ab894	0.22921973
47	0xbe6b2dc8	-0.22966683
48	0x3d9733d6	0.07382934
49	0x3f1472af	0.57987493
50	0x3db4b1f7	0.088230066
51	0x3eb09606	0.3448946
52	0xbd99aaf2	-0.07503308
53	0x3e5f5f1c	0.21813625
54	0x3e96c3d6	0.29446286
55	0x3eb2df92	0.34936196
56	0x3e8f50c1	0.27991298
57	0xbdacb4c5	-0.084329166
58	0xbd7017ea	-0.058616556
59	0x3ec08c84	0.37607205
60	0x3dfc7735	0.123274244
61	0x3c01d8f7	0.007925264
62	0x3e2e18fd	0.1700172
63	0x3e823c7d	0.25436774
64	0x3e0addfe	0.13561246
65	0xbdfc213e	-0.12311028
66	0xbd8c7eee	-0.068601474
67	0xbc715c50	-0.014731482
68	0x3cd8cd05	0.026464948
69	0xbcf10725	-0.029422352
70	0x3e9a9ce7	0.30197832
71	0xbe9d5c3d	-0.30734435
72	0xbd230775	-0.039802033
73	0x3d9242bc	0.07141635
74	0xbec53d4e	-0.38523334
75	0x3ea81d2c	0.32834756
76	0xbe25059a	-0.16115418
77	0x3e308e08	0.1724168
78	0x3e23bbbb	0.15989582
79	0xbe5dde77	-0.21666895
80	0xbe230d72	-0.15923098
81	0x3d974b61	0.07387424
82	0x3d18c823	0.03730024
83	0x3de2905d	0.11062691
84	0x3ea501ad	0.3222784
85	0x3ea9110c	0.33020818
86	0x3e1afcce	0.151355
87	0x3c176e9a	0.009242678
88	0x3cc8fd08	0.024534717
89	0x3bd29602	0.0064265737
90	0xbceba4dc	-0.028765135
91	0xbe5f189f	-0.21786736
92	0xbdd66864	-0.1046913
93	0x3e8bb294	0.27284682
94	0x3e41d91b	0.18930475
95	0xbdba2562	-0.090891615
96	0xbddb0e4d	-0.10696087
97	0x3c4c037c	0.012452003
98	0xbe356416	-0.17713961
99	0xbd944a49	-0.07240731
100	0xbda803e4	-0.08203867
101	0xbf31a1fe	-0.69387805
102	0x3e893b36	0.26802987
103	0x3eb2ef64	0.34948266
104	0xbd03ae90	-0.032148898
105	0x3e0df85e	0.13864276
106	0x3dd25396	0.10269849
107	0xbe3f6049	-0.18689074
108	0x3e5f9d10	0.21837258
109	0xbc9207be	-0.017825957
110	0x3e804da5	0.25059238
111	0xbe5d901a	-0.21637002
112	0xbde1f992	-0.1103393
113	0xbe519de7	-0.20470391
114	0xbf012a83	-0.5045549
115	0x3f194c7c	0.5988233
116	0xbd4e8b2d	-0.050425697
117	0x3d5f4f1f	0.054518815
118	0x3e3cf461	0.18452598
119	0x3e7b91d1	0.24567343
120	0x3e89f95e	0.26948065
121	0xbec5a095	-0.38599077
122	0xbdef073b	-0.11671301
123	0xbea2d012	-0.3179937
124	0xbd5ca767	-0.053870585
125	0x3d8a0da5	0.06740884
126	0x3e8feb2e	0.28109115
127	0xbe23b280	-0.15986061

output.bias f4 [4]
0	0x3e6a4529	0.22877945
1	0x3e9afe24	0.3027202
2	0x3e344530	0.17604518
3	0x3e9135e0	0.28361416
