checkpoint.pth (torch_old, 62552 bytes, 8 tensors)

input.weight f4 [128, 37]
0	0xbdf06cbf	-0.11739492
1	0xbe531ff2	-0.20617655
2	0xbc83278a	-0.016010065
3	0xbf1687d5	-0.58801013
4	0xbdd7aeb2	-0.10531367
5	0xbda33e33	-0.07970848
6	0xbe101fe5	-0.14074667
7	0xbdf4888f	-0.11940109
8	0xbdb8f061	-0.09030224
9	0x3dae1fcd	0.08502159
10	0xbdd31927	-0.10307532
11	0xbdca3637	-0.09873622
12	0xbe2ff933	-0.17184906
13	0xbef0a687	-0.4700205
14	0xbe94860f	-0.2900853
15	0xbeb06aa3	-0.34456357
16	0xbea1c10c	-0.31592596
17	0x3e948534	0.29007876
18	0xbeabe3c6	-0.33572215
19	0xbe37aefa	-0.17937842
20	0x3d8caca9	0.0686887
21	0x3e1d8181	0.15381433
22	0xbe5096d6	-0.2037004
23	0xbe9d1ac9	-0.30684498
24	0xbc450e15	-0.012027283
25	0xbe8e1e21	-0.27757362
26	0x3e07c516	0.13258776
27	0xbe834941	-0.25641826
28	0xbe902bb2	-0.28158337
29	0x3ddd094c	0.10792789
30	0xbe54dee0	-0.20788145
31	0xbe563c43	-0.20921426
32	0xbda14043	-0.07873585
33	0xbd686e8a	-0.056746043
34	0xbe45386a	-0.19259802
35	0xbe2f58f5	-0.17123778
36	0xbdebd648	-0.1151548
37	0x3ec7dcb5	0.39035574
38	0xbe46ef72	-0.19427279
39	0x3d519107	0.0511637
40	0xbde9726f	-0.113987796
41	0xbf364bf8	-0.7120967
42	0x3d96fd28	0.073725045
43	0xbdd134b6	-0.10215132
44	0x3de6e3cf	0.1127392
45	0xbec57338	-0.38564467
46	0xbdc668c3	-0.096879505
47	0x3da05275	0.078282274
48	0xbd9bfccc	-0.076165766
49	0x3d4b1245	0.04957797
50	0x3de4a900	0.11165047
51	0xbe7025cf	-0.23451923
52	0x3e058e29	0.13042511
53	0xbd1b204b	-0.037872594
54	0x3e56cad6	0.20975813
55	0xbdebbfd3	-0.11511197
56	0x3d73de4b	0.059538167
57	0xbdeb6f39	-0.114958234
58	0xbbef4cf7	-0.007302876
59	0xbe473cd9	-0.19456805
60	0x3d6287ab	0.055305164
61	0x3d2e9d01	0.0426302
62	0xbe4f0d0b	-0.20219819
63	0xbc84252e	-0.01613101
64	0x3d8fff15	0.07031075
65	0x3dc81042	0.09768726
66	0x3e6d3e63	0.2316833
67	0x3cd87db3	0.026427126
68	0x3e033e82	0.12816814
69	0xbc4f99a8	-0.012670912
70	0x3cfa9370	0.030587882
71	0xbe6bcaa9	-0.23026527
72	0x3cd8205e	0.026382621
73	0x3c9ecb1c	0.01938396
74	0xbdc31e62	-0.095272794
75	0x3dd0b033	0.10189857
76	0x3e08cdce	0.13359758
77	0xbe001a59	-0.12510051
78	0x3db6e77e	0.089308724
79	0xbf470c20	-0.77752876
80	0xbeb8debc	-0.36107433
81	0x3e8b8ea3	0.2725726
82	0x3e126ade	0.14298579
83	0xbeafdca3	-0.3434802
84	0x3d493970	0.049127042
85	0xbd899246	-0.067173526
86	0xbe08a2c9	-0.13343348
87	0xbdaddbf7	-0.084892206
88	0x3dcac95b	0.09901687
89	0xbe494235	-0.19654162
90	0x3e6362d3	0.22205667
91	0xbe44508d	-0.19171353
92	0x3d3435a1	0.043996457
93	0x3e821294	0.254048
94	0xbef887b6	-0.4854104
95	0x3e1d9fef	0.15393041
96	0x3bcd463f	0.0062644775
97	0x3e41d9ba	0.18930712
98	0xbeae9adf	-0.34102532
99	0xbeea48bc	-0.45758617
100	0x3e8374e3	0.25675115
101	0x3e1a638a	0.15077034
102	0xbddf23ea	-0.10895522
103	0xbe14d443	-0.14534096
104	0xbdc8f02a	-0.09811433
105	0xbe131335	-0.14362796
106	0xbeafc471	-0.3432956
107	0x3d86f7a9	0.06590206
108	0x3e143a04	0.14475256
109	0xbb9a7c8a	-0.0047145532
110	0xbcc9533a	-0.024575818
111	0x3cce7988	0.025204435
112	0xbddc39dd	-0.10753224
113	0x3e665b8c	0.2249586
114	0x3e75c967	0.2400261
115	0x3e297508	0.1654855
116	0xbf1efef6	-0.6210779
117	0x3dcbd1fe	0.09952162
118	0x3e83e6a5	0.25761905
119	0xbdc4ccde	-0.09609388
120	0xbe7d7ba5	-0.24754198
121	0xbe234ab4	-0.15946466
122	0x3e1a985b	0.15097181
123	0xbda8d4ca	-0.08243711
124	0xbd27e11d	-0.04098617
125	0xbf3afc7d	-0.73041517
126	0xbe1eff95	-0.15527184
127	0xbd61b437	-0.055103507
128	0xbd1c9b8b	-0.038234275
129	0xbc5f1366	-0.013615465
130	0x3d93f364	0.072241575
131	0xbee59cd1	-0.44846204
132	0x3e03c56d	0.1286828
133	0x3d5c93f6	0.053852044
134	0xbc41a959	-0.011820161
135	0xbf578e1a	-0.84201205
136	0xbd8db5e1	-0.06919456
137	0x3c818c7f	0.015814064
138	0x3dd85e28	0.10564834
139	0x3ddc5c89	0.10759837
140	0xbc6c1ad5	-0.014410694
141	0xbf0561f1	-0.5210257
142	0x3eca8b1b	0.39559254
143	0x3e11d303	0.14240651
144	0xbe06ee44	-0.13176829
145	0xbf3210c3	-0.69556826
146	0xbd52e755	-0.051490147
147	0x3c4a26bc	0.012338337
148	0x3c983867	0.018581582
149	0xbe4cfd42	-0.20018485
150	0xbe2f4159	-0.17114772
151	0xbdce91c1	-0.10086394
152	0x3c54a1ef	0.012978061
153	0x3dc6554a	0.09684236
154	0x3e87fe0e	0.26561016
155	0xbe59e4e9	-0.21278729
156	0xbdf2366d	-0.11826787
157	0xbf322233	-0.69583434
158	0x3df37c55	0.11888949
159	0xbe6e1b78	-0.23252666
160	0xbd5c2cf2	-0.0537538
161	0x3d58e853	0.052955937
162	0xbdea575a	-0.11442442
163	0xbe886bc9	-0.26644734
164	0xbdc5ea94	-0.09663883
165	0xbd7943f4	-0.06085582
166	0x3e8bddca	0.2731765
167	0x3e2bff20	0.16796541
168	0xbdf1160f	-0.117717855
169	0x3e1a432a	0.15064684
170	0xbdcf1d25	-0.10112981
171	0x3e0e4b8f	0.13896011
172	0x3ea039a0	0.31293964
173	0x3dbc4f93	0.09194865
174	0xbe40ea4e	-0.1883938
175	0x3d2153b4	0.039386466
176	0xbe1f312f	-0.15546106
177	0xbf1ca819	-0.61193997
178	0xbcdc37a7	-0.026882006
179	0x3d2ad761	0.041709308
180	0x3c282f65	0.010265206
181	0x3dd473b6	0.103736326
182	0x3f064f90	0.5246515
183	0xbddd8b39	-0.1081757
184	0x3c176823	0.009241137
185	0x3d3a6fd2	0.045516796
186	0xbe6e5f3c	-0.23278517
187	0xbe8767de	-0.26446432
188	0x3e1e9923	0.15488105
189	0x3d938732	0.07203521
190	0xbe32ce40	-0.1746149
191	0x3975df50	0.00023448211
192	0x3e3222c5	0.17396076
193	0xbd7ab042	-0.06120325
194	0xbe4829cb	-0.19547193
195	0xbc936ded	-0.017996753
196	0xbe3fef21	-0.18743564
197	0xbc7d6d0e	-0.015467895
198	0xbe3c0758	-0.18362176
199	0xbdd93620	-0.10606027
200	0xbe1e8203	-0.15479283
201	0xbcaf94ce	-0.02143326
202	0xbe2d1559	-0.16902675
203	0x3c6f2a8f	0.014597549
204	0xbe52dbbc	-0.20591635
205	0x3e1f5711	0.15560557
206	0xbcf87674	-0.03032992
207	0xbd95a438	-0.07306713
208	0x3e00de49	0.12584795
209	0xbe3aa225	-0.18225916
210	0xbe0ba84e	-0.13638422
211	0xbe1f0290	-0.15528321
212	0x3d392c5d	0.045208324
213	0xbcd960e8	-0.026535466
214	0x3d7abc14	0.06121452
215	0xbe326b91	-0.17423846
216	0x3d25d6f7	0.04048821
217	0x3d4deebd	0.050276507
218	0xbe449024	-0.1919561
219	0x3e3b3292	0.1828101
220	0x3e2c1463	0.16804652
221	0x3ddb5fe8	0.10711652
222	0xbd9e439f	-0.077277415
223	0x3dd452b3	0.10367336
224	0xbe850d95	-0.25986925
225	0x3e3e8d95	0.18608697
226	0xbd012e6d	-0.031538416
227	0xbeb36203	-0.35035715
228	0xbe45e5c9	-0.19325937
229	0x3d30a72f	0.04312819
230	0x3d981b83	0.074271224
231	0x3e7cfc1d	0.24705549
232	0xbe4c62d1	-0.1995957
233	0x3e243573	0.16036014
234	0xbe5106ba	-0.20412722
235	0x3e87c936	0.265207
236	0xbe1f42ea	-0.1555287
237	0xbe8b8707	-0.27251455
238	0xbe163b9f	-0.14671181
239	0x3cac7479	0.021051632
240	0x3db6b290	0.08920777
241	0x3ead6bbb	0.33871254
242	0xbe2bd062	-0.1677871
243	0x3daaf145	0.083468
244	0x3df16409	0.11786658
245	0xbed8bb3b	-0.42330346
246	0x3e9b63f4	0.30349696
247	0xbec5a070	-0.38598967
248	0xbe0b8933	-0.13626556
249	0x3bee25a4	0.0072676707
250	0xbe312742	-0.17300132
251	0x3de258a7	0.11052065
252	0xbe83d19a	-0.2574585
253	0xbe00f7c4	-0.12594515
254	0x3e5aa814	0.21353179
255	0x3c17ffcb	0.009277294

input.bias f4 [128]
0	0xbdf63a76	-0.12022869
1	0x3ca95625	0.02067096
2	0xbdb98efd	-0.09060476
3	0xbd842497	-0.064522915
4	0xbd14a93e	-0.036294214
5	0xbe42550a	-0.18977752
6	0x3d389627	0.04506507
7	0x3d2c1ccc	0.04201965
8	0xbe5547e5	-0.20828207
9	0x3daffb05	0.085928
10	0xbc29d55f	-0.010365813
11	0xbd650114	-0.05590923
12	0xbdbcde6c	-0.09222111
13	0xbe072ec3	-0.13201432
14	0xbce091a6	-0.0274132
15	0xbd9b1306	-0.07571988
16	0x3d3a2825	0.04544844
17	0x3be8a73f	0.0071000154
18	0xbe03c20d	-0.12866993
19	0xbcf93f19	-0.030425595
20	0xbdf2d154	-0.118563324
21	0x3d82406b	0.06359943
22	0x3e25df6e	0.16198513
23	0xbe164559	-0.14674892
24	0x3df05ef9	0.117368646
25	0x3e4db9f7	0.20090471
26	0x3de8f3d2	0.1137463
27	0x3886908f	6.416544e-05
28	0xbc2059f6	-0.009787073
29	0xbe27fab1	-0.16404225
30	0x3d274e22	0.040845998
31	0x3e1ac772	0.15115145
32	0xbd56aaf6	-0.052409135
33	0x3d2a18e8	0.04152766
34	0xbd03bd2d	-0.032162834
35	0xbe2c199f	-0.16806649
36	0x3ccaa438	0.024736509
37	0x3d929e34	0.07159081
38	0x3c8e41c8	0.017365351
39	0x3c7cb70c	0.015424501
40	0x3d22cbd9	0.039745186
41	0x3dada87d	0.08479402
42	0x3e5cfec7	0.21581565
43	0x3c8dd530	0.01731357
44	0x3d23fada	0.040034153
45	0xbdb5fade	-0.0888574
46	0x3d49c952	0.04926426
47	0xbd7dd3ff	-0.061969753
48	0xbd73947b	-0.059467774
49	0x3c9a543c	0.018838994
50	0x3bebab4a	0.00719205
51	0x3dbde79e	0.09272693
52	0x3e001bfb	0.12510674
53	0x3db1507e	0.08657931
54	0x3d40d744	0.047080293
55	0x3ddde274	0.10834208
56	0x3d1f80b1	0.03894109
57	0xbba2d643	-0.0049693896
58	0x3e447477	0.19185053
59	0xbd175128	-0.03694263
60	0x3c838456	0.016054314
61	0xbde08775	-0.109633364
62	0x3d57202c	0.052520916
63	0xbd17d6e8	-0.037070185
64	0x3e0ba09f	0.13635491
65	0x3da3f1e9	0.08005125
66	0x3ca49316	0.020089667
67	0xbdccb1e2	-0.09994866
68	0xbe0cb3a8	-0.13740408
69	0xbdf3f022	-0.11911036
70	0xbdc02d5d	-0.09383652
71	0xbe0b5066	-0.13604888
72	0x3c90fe09	0.017699258
73	0xbe19731a	-0.14985314
74	0xbdf91504	-0.121622115
75	0xbd1f4741	-0.038886312
76	0x3d82cc3a	0.063866094
77	0xbe1f9792	-0.15585163
78	0x3d94c445	0.07263998
79	0x3d08d09c	0.03340207
80	0xbd34753a	-0.04405711
81	0x3d019272	0.0316338
82	0x3df5a378	0.1199407
83	0xbc95e613	-0.018298184
84	0xbd84a9ae	-0.06477676
85	0x3dbd96c6	0.092572734
86	0x3d97227e	0.07379626
87	0xbd23de89	-0.040007148
88	0xbdb3ef94	-0.0878593
89	0x3ae0f0c0	0.0017161593
90	0x3d91b75a	0.0711505
91	0xbe2aeb65	-0.16691358
92	0xbdc45c75	-0.09587947
93	0xbe3e567a	-0.18587676
94	0xbdf69223	-0.12039592
95	0x3d75128b	0.059832137
96	0x3d8bb204	0.06821063
97	0xbe221d33	-0.15831451
98	0xbdbd3183	-0.09237959
99	0x3e053126	0.1300703
100	0xbdda5347	-0.10660415
101	0xbe86347f	-0.26211926
102	0x3d3a3097	0.045456495
103	0x3eafc928	0.34333158
104	0xbe9825f7	-0.29716465
105	0xbe281ddc	-0.1641764
106	0xbdb3ed55	-0.08785502
107	0x3dd909e0	0.10597587
108	0xbde6f918	-0.112779796
109	0x3c0a6b29	0.008448401
110	0x3ca956f9	0.020671355
111	0xbde79ee6	-0.11309604
112	0xbd610e7d	-0.054945458
113	0xbdc60b65	-0.09670142
114	0xbda54224	-0.08069256
115	0x3d67d3f9	0.056598637
116	0x3da338e7	0.07969838
117	0x3dac6f9a	0.08419724
118	0xbd80d993	-0.06291499
119	0xbd8b2a30	-0.06795156
120	0xbd6ba969	-0.05753461
121	0x3af4766a	0.0018651013
122	0xbdcc2c8d	-0.09969435
123	0xbddf8628	-0.1091426
124	0xbbc52f03	-0.006017567
125	0xbd491777	-0.049094643
126	0x3df681a9	0.120364495
127	0xbd860fb7	-0.06545966

fc1.weight f4 [64, 128]
0	0x3cb88514	0.022524394
1	0xbe385a8c	-0.18003291
2	0xbd57ad1c	-0.052655324
3	0xbe1532cb	-0.14570157
4	0x3d179a57	0.037012424
5	0xbe044c53	-0.1291974
6	0x3dafb462	0.08579327
7	0x3e656cd4	0.22404796
8	0x3ca64120	0.020294726
9	0x3e366a13	0.17813902
10	0xbb279ab4	-0.0025574388
11	0xbe119504	-0.14217001
12	0xbd7f3f12	-0.062316008
13	0x3ecb56da	0.397147
14	0x3d1a7895	0.037712652
15	0xbe4c812e	-0.19971153
16	0xbd6fdce7	-0.05856028
17	0xbea0f1af	-0.3143439
18	0x3a53b574	0.000807605
19	0xbe1545be	-0.14577386
20	0xbe8474db	-0.25870404
21	0xbd0a84eb	-0.033818167
22	0x3d8a5960	0.06755328
23	0x3c783eb5	0.015151669
24	0x3cf2f99f	0.029660044
25	0x3e5e9400	0.21736145
26	0xbea17dd6	-0.31541318
27	0xbe7f6e0b	-0.24944322
28	0xbe269e3f	-0.16271304
29	0x3d6eb623	0.058279168
30	0xbcf0e1ca	-0.02940454
31	0x3dc03b54	0.09386316
32	0xbd929fd8	-0.07159394
33	0xbd702a38	-0.058634013
34	0x3d5edef0	0.05441183
35	0xbc673fe9	-0.014114358
36	0xbe4f02db	-0.20215933
37	0xbe14b941	-0.14523794
38	0x3c877c4c	0.016538762
39	0xbd3cda3e	-0.04610657
40	0xbe26089b	-0.1621422
41	0xbe11a315	-0.14222367
42	0xbeae6501	-0.34061435
43	0x3d9fb859	0.077988334
44	0xbe18361f	-0.14864396
45	0x3d9f7e7b	0.07787796
46	0x3d2d926d	0.04237597
47	0xbf2c1e0c	-0.6723335
48	0xbe0bed0f	-0.1366465
49	0xbe802499	-0.25027922
50	0x3c9d4d16	0.019201797
51	0xbe7de6f2	-0.2479513
52	0xbc2be961	-0.010492654
53	0xbd4cb242	-0.049974687
54	0x3ee8db21	0.45479682
55	0xbd46ecbd	-0.048565615
56	0xbe633fd0	-0.22192311
57	0xbbdaf2a9	-0.0066817594
58	0x3cb21b91	0.02174166
59	0xbcb46de5	-0.022025058
60	0x3e236983	0.15958218
61	0x3ebe8a57	0.3721492
62	0xbc99d8f2	-0.018780205
63	0xbdbc7576	-0.092020914
64	0xbe03346c	-0.12812966
65	0xbe9c868c	-0.305714
66	0x3d58b036	0.052902423
67	0x3d9c07a7	0.07618647
68	0xbe7d13f1	-0.24714638
69	0xbe11c18e	-0.14233992
70	0x3b0e70d2	0.0021734727
71	0x3e0f861c	0.14016002
72	0x3dba32fe	0.09091757
73	0xbe6c2f97	-0.23065029
74	0xbe1deeb4	-0.1542309
75	0x3e9d4e95	0.30724016
76	0xbe0ae34a	-0.13563266
77	0xbe32dcb7	-0.17467009
78	0x3dd7d3f2	0.10538472
79	0x3bcd4ad7	0.006265025
80	0xbe68114a	-0.22662845
81	0x3dd60ac8	0.10451275
82	0x3d9ea167	0.07745629
83	0xbec743ad	-0.3891882
84	0xbe93bae9	-0.2885354
85	0xbe1a4492	-0.1506522
86	0xbbcdb179	-0.00627726
87	0x3d8c9f75	0.068663515
88	0x3c9cc878	0.01913856
89	0xbd37e6ea	-0.04489795
90	0x3cba2976	0.022724848
91	0x3dd91a80	0.106007576
92	0x3d9439e1	0.07237602
93	0x3dac8064	0.08422926
94	0x3dbe343f	0.09287309
95	0x3d2f68b9	0.04282448
96	0x3d398cc6	0.045300268
97	0x3eb55164	0.3541366
98	0xbd9d73c6	-0.07688098
99	0xbf017450	-0.50568104
100	0x3e7366bb	0.23769657
101	0xbe40bf25	-0.18822916
102	0x3dc5b132	0.09652938
103	0xbec210fb	-0.3790358
104	0xbe0b0aea	-0.13578382
105	0x3c88b1f5	0.016686419
106	0xbe1d2066	-0.1534439
107	0xbd2eb802	-0.042655952
108	0x3e35c408	0.17750561
109	0xbd2f215b	-0.04275642
110	0x3ccb5e69	0.024825292
111	0x3dc23600	0.09482956
112	0x3da23c82	0.07921697
113	0x3d0b9ec1	0.034086946
114	0xbecfdbbe	-0.40597337
115	0xbdb114ac	-0.08646521
116	0x3deceba3	0.11568382
117	0x3da10c61	0.07863689
118	0x3bea7bd1	0.0071558733
119	0x3e0d26b4	0.13784295
120	0x3e68d585	0.22737701
121	0xbd9cbb3b	-0.07652899
122	0x3d67331e	0.056445234
123	0xbd0d9292	-0.03456361
124	0x3dc23f59	0.09484739
125	0x3d0c5307	0.03425887
126	0x3bbeef9a	0.0058269026
127	0xbe524955	-0.20535786
128	0xbe863360	-0.2621107
129	0x3d93ff08	0.07226378
130	0xbe2308cc	-0.15921324
131	0xbe3f4ec8	-0.18682396
132	0x3d593826	0.053032063
133	0x3d7fb07d	0.06242417
134	0x3beed93f	0.0072890813
135	0xbebafe51	-0.36522153
136	0x3e05c909	0.1306497
137	0x3c4f2988	0.012644179
138	0xbd594f5a	-0.05305419
139	0x3c002b8d	0.007822883
140	0xbe3e49c6	-0.1858283
141	0xbddd0147	-0.10791259
142	0xbd006395	-0.03134497
143	0x3d940634	0.07227746
144	0xbe6e6c59	-0.23283519
145	0x3df8496e	0.121233806
146	0x3ca517a4	0.020152874
147	0xbc3cca85	-0.011522894
148	0xbe51fcc7	-0.20506583
149	0xbd8eb088	-0.069672644
150	0x3e1c27b5	0.15249522
151	0xbea9f4ac	-0.33194482
152	0xbd9f2e44	-0.07772496
153	0xbd76bf98	-0.06024131
154	0xbe6aef6c	-0.22942895
155	0xbd62883b	-0.0553057
156	0x3be7243e	0.007053881
157	0xbda27e57	-0.07934254
158	0xbe6aa0e8	-0.22912943
159	0xbd8bb18d	-0.068209745
160	0xbc72f844	-0.014829699
161	0xbe80d9e2	-0.2516623
162	0xbe8140b0	-0.25244665
163	0xbead2917	-0.33820412
164	0xbd124dee	-0.03571885
165	0xbda53faa	-0.080687836
166	0xbd29e9ad	-0.041482616
167	0xbe15d596	-0.14632258
168	0xbeb296d9	-0.34880713
169	0xbe6ba035	-0.23010333
170	0xbdde7874	-0.10862818
171	0x3cd503ec	0.026002847
172	0xbe1ca7be	-0.15298364
173	0xbe1ef1cc	-0.15521926
174	0x3be1daee	0.0068925535
175	0xbd49fce9	-0.04931346
176	0xbebc2e60	-0.3675413
177	0xbd9bf0a1	-0.07614256
178	0x3e1ce5b3	0.15321998
179	0xbdf3fec3	-0.11913826
180	0xbd2468e8	-0.04013911
181	0x3da518a6	0.08061342
182	0x3e1622b0	0.1466167
183	0x3cedd1c7	0.029030694
184	0xbd678249	-0.056520734
185	0xbec3cf06	-0.38243884
186	0xbe3f4fca	-0.18682781
187	0x3d8f3072	0.06991662
188	0x3e6f31b4	0.23358804
189	0xbe1782ae	-0.14795944
190	0x3d7aa21b	0.061189752
191	0xbe83b2de	-0.25722402
192	0x3da0492d	0.07826457
193	0xbd91e067	-0.071228795
194	0x3da982a1	0.082768686
195	0x3e29701d	0.16546674
196	0x3dfe0ec0	0.12405157
197	0xbe64a157	-0.22327171
198	0x3da0adfc	0.07845685
199	0xbeb33c9f	-0.35007188
200	0xbe8e0cc2	-0.27744108
201	0xbe098ef6	-0.13433442
202	0xbc0d215c	-0.0086139105
203	0xbe1e10e3	-0.1543613
204	0x3e0be3f9	0.13661183
205	0xbe95bf7f	-0.29247662
206	0xbe798466	-0.24366912
207	0xbe397057	-0.1810926
208	0xbdb56bb4	-0.08858433
209	0x3da9e267	0.08295136
210	0xbf027ea3	-0.5097448
211	0x3cde630c	0.027146839
212	0xbd0fadf2	-0.035077997
213	0xbeb996d9	-0.362479
214	0xbd43ba78	-0.047785252
215	0xbe53d5e3	-0.2068706
216	0xbd7bd825	-0.06148543
217	0xbce276e9	-0.027644591
218	0xbe7bf08e	-0.24603483
219	0xbe8b9da6	-0.27268714
220	0x3d875ded	0.06609712
221	0xbd8f3595	-0.06992642
222	0xbe39cf50	-0.1814549
223	0xbea086ed	-0.3135294
224	0xbc7a75e0	-0.015286893
225	0xbe6721c3	-0.22571473
226	0xbe196d35	-0.14983065
227	0xbd52c587	-0.051457908
228	0xbd047899	-0.032341573
229	0xbde7317b	-0.112887345
230	0x3ce33910	0.02773717
231	0x3d50b826	0.050956868
232	0xbddc38cb	-0.1075302
233	0xbdf4e6c4	-0.119580775
234	0xbcabe11a	-0.02098136
235	0xbde66ee5	-0.1125162
236	0x3d8b550d	0.068033315
237	0xbe87c247	-0.2651541
238	0xbdf2bb70	-0.11852157
239	0xbdc06a3a	-0.09395261
240	0xbebb5616	-0.36589116
241	0xbcf64a50	-0.030064732
242	0xbe51346d	-0.20430155
243	0xbe9a261c	-0.301072
244	0xbd9d36ae	-0.07676445
245	0x3e085e9d	0.13317342
246	0x3d0cfafb	0.03441904
247	0xbddd0ec1	-0.1079383
248	0xbe4cd9ea	-0.20005003
249	0x3e084a03	0.13309483
250	0x3db1552e	0.08658825
251	0xbdded545	-0.10880522
252	0xbea3f7c4	-0.32024968
253	0xbdb69da7	-0.089167885
254	0xbe0d6932	-0.1380966
255	0xbcdda6e3	-0.027057117

fc1.bias f4 [64]
0	0x3da8f4b2	0.08249797
1	0xbe091c8b	-0.13389795
2	0xbcb36250	-0.021897465
3	0xbdbc7e32	-0.09203757
4	0x3dc12d96	0.09432523
5	0xbde8b360	-0.11362338
6	0xbd009b4e	-0.03139811
7	0x3d03a9c4	0.032144323
8	0xbe01eaf7	-0.12687288
9	0xbe5fdc2e	-0.21861336
10	0x3d98eb30	0.074667335
11	0xbc970e9d	-0.018439585
12	0xbd8ca67a	-0.068676904
13	0xbd664369	-0.05621663
14	0xbe084bc3	-0.13310151
15	0x3e49162b	0.19637363
16	0x3e550449	0.20802416
17	0xbcd10b00	-0.02551794
18	0xbdca7a9c	-0.09886667
19	0xbe286fb5	-0.16448863
20	0x3da67a9a	0.08128853
21	0x3cea323e	0.02858841
22	0x3d29aecf	0.041426476
23	0x3ddc6d7b	0.10763069
24	0x3cf21056	0.029548805
25	0xbcec4274	-0.028840281
26	0x3a7b46fa	0.00095854665
27	0x3c4d82ac	0.012543362
28	0xbd9134a7	-0.07090121
29	0x3da9d038	0.08291668
30	0xbd98041e	-0.0742266
31	0x3e9a4c80	0.3013649
32	0xbdedb317	-0.11606424
33	0x3e01fcb1	0.1269405
34	0x3da3c1b7	0.079959325
35	0xbd8d193a	-0.06889577
36	0x3d8a4290	0.06750977
37	0x3d61dee3	0.055144202
38	0x3ddaa042	0.10675098
39	0xbd5fd6ea	-0.054648317
40	0xbd2d5c64	-0.04232444
41	0x3e8a3632	0.26994473
42	0x3d3277d5	0.043571312
43	0xbdecdc3a	-0.115654424
44	0x3b543960	0.003238283
45	0x3dc09e76	0.09405224
46	0xbd8bdb26	-0.068289086
47	0x39dc20d4	0.0004198613
48	0xbd6a8ee6	-0.057265185
49	0xbda32899	-0.07966728
50	0xbdacf0e3	-0.08444383
51	0xbd073dc0	-0.033017874
52	0xbde75116	-0.11294763
53	0xbcfdd52f	-0.030985443
54	0xbd73411b	-0.05938826
55	0xbd29b99e	-0.041436784
56	0x3d34f226	0.044176243
57	0xbd440984	-0.047860637
58	0xbda42bcc	-0.08016166
59	0x3d9a718f	0.07541191
60	0xbd984a67	-0.07436066
61	0xbd48cf3a	-0.04902575
62	0xbdb76db8	-0.08956474
63	0xbcf5fbfb	-0.03002738

fc2.weight f4 [32, 64]
0	0x3e468708	0.19387448
1	0x3e989c63	0.29806814
2	0x3e921fc6	0.28539866
3	0x3daf847c	0.08570191
4	0xbc0a0f76	-0.008426538
5	0xbe82fc36	-0.25583047
6	0x3e8399de	0.2570333
7	0x3b1a99a9	0.0023590124
8	0xbe3f1f63	-0.18664317
9	0xbe1d3749	-0.15353121
10	0x3e8a901d	0.27063075
11	0x3e730d97	0.23735653
12	0xbe9345fd	-0.28764334
13	0xbda10c7c	-0.07863709
14	0x3e3ca189	0.18420996
15	0x3dff0b8c	0.12453374
16	0x3cf37d0f	0.029722719
17	0xbec3cd69	-0.38242653
18	0x3dc77ada	0.09740229
19	0x3cd48487	0.0259421
20	0x3c7643b1	0.015030787
21	0x3c5ade00	0.013358593
22	0x3ce5087c	0.027958147
23	0xbc22e2b5	-0.0099417465
24	0x3c81b90a	0.015835304
25	0xbe59b56d	-0.21260615
26	0xbcd6aae4	-0.026204534
27	0xbdf1b43c	-0.11801955
28	0xbe1d3888	-0.15353596
29	0xbcc779f0	-0.024350137
30	0xbe2d300a	-0.16912857
31	0x3e7d1289	0.24714102
32	0xba5c9952	-0.00084151805
33	0xbdbffd12	-0.09374441
34	0x3ce71126	0.02820642
35	0xbe207568	-0.15669787
36	0x3e074962	0.13211587
37	0x3e46346e	0.19355938
38	0xbc95607f	-0.01823449
39	0x3e235337	0.15949713
40	0x3ea46f31	0.32116082
41	0x3d70ce0a	0.058790244
42	0xbe6279b6	-0.22116742
43	0x3e9c593e	0.30536836
44	0xbd3fbecf	-0.04681283
45	0x3ce723d0	0.028215319
46	0x3df0f9e0	0.1176641
47	0x3e943ef3	0.28954276
48	0x3d3aa474	0.04556699
49	0x3eb4757b	0.3524588
50	0xbe466c0a	-0.19377151
51	0x3e41eabe	0.18937203
52	0xbdbec590	-0.09315026
53	0x3d485b4d	0.048915196
54	0x3def3c57	0.11681431
55	0xbddad7ca	-0.1068569
56	0xbe16c439	-0.1472329
57	0x3cef2642	0.029193047
58	0x3d84dc8c	0.064873785
59	0x3dea483c	0.11439559
60	0xbe52bad8	-0.20579088
61	0x3c1396b8	0.009008102
62	0x3d9e504f	0.077301614
63	0xbdccdcdc	-0.10003063
64	0xbd27afa8	-0.040939003
65	0x3e8be5b8	0.273237
66	0x3e7274fa	0.23677436
67	0xbe270a33	-0.16312484
68	0xbe0811ac	-0.13287991
69	0xbda74bb4	-0.08168736
70	0x3d8beefa	0.068326905
71	0xbe1a7b2a	-0.15086046
72	0x3e6ee116	0.23328051
73	0x3e35e896	0.17764506
74	0xbe809b15	-0.25118318
75	0xbd31c981	-0.04340506
76	0x3e4f30fe	0.20233533
77	0x3e3b1926	0.18271312
78	0xbe839e97	-0.25706932
79	0xbc380a93	-0.01123299
80	0xbe2f474d	-0.17117043
81	0xbe15774b	-0.14596288
82	0x3e445d02	0.19176105
83	0x3e229232	0.15876082
84	0xbeafc7f7	-0.3433225
85	0xbe84ae35	-0.2591416
86	0xbec73de9	-0.3891442
87	0x3ce6b87b	0.028164139
88	0x3c66f5d1	0.014096693
89	0xbdb6829a	-0.08911629
90	0x3d9097f4	0.07060233
91	0x3c795ccc	0.015219878
92	0x3ee12c04	0.43978894
93	0xbd1a83e5	-0.03772344
94	0xbeded9ac	-0.43525445
95	0x3c8e13d4	0.01734344
96	0x3df635a7	0.12021952
97	0xbeb3c7ef	-0.35113475
98	0xbed3c58e	-0.4136166
99	0x3da1cfcd	0.07900963
100	0xbe06aa5c	-0.13150924
101	0x3dd397ed	0.10331712
102	0xbc9cf40e	-0.019159343
103	0xbd89ef9f	-0.06735157
104	0x3ea18f40	0.31554604
105	0xbdf9ca63	-0.12196805
106	0xbdd00a3a	-0.101582006
107	0x3ea180d7	0.3154361
108	0xbe531053	-0.20611696
109	0x3eb2411b	0.34815297
110	0x3cc36d82	0.023855928
111	0x3de28900	0.11061287
112	0x3eca49cc	0.39509428
113	0xbd700e77	-0.058607545
114	0x3e96772f	0.29387805
115	0xbe54dd97	-0.20787655
116	0xbe2b9bce	-0.16758654
117	0x3dd8bf63	0.10583379
118	0x3e86074e	0.26177448
119	0x3ec80ef0	0.39073896
120	0x3b4167f5	0.0029511426
121	0x3ce600e4	0.028076597
122	0xbe84a071	-0.25903657
123	0x3e73dfae	0.23815796
124	0xbe007c54	-0.12547427
125	0x3e0d7c57	0.13816963
126	0xbe11829b	-0.14209978
127	0xbe8b3277	-0.2718694
128	0x3d51d99f	0.05123293
129	0xbc0072c3	-0.007839861
130	0x3df4610d	0.119325735
131	0x3e6376d6	0.22213301
132	0x3e6ebb0c	0.2331354
133	0x3e3f2896	0.18667826
134	0xbce45977	-0.027874691
135	0xbd6c7589	-0.057729278
136	0x3f19fecf	0.6015443
137	0x3c03a3ea	0.008034686
138	0x3ebea502	0.37235266
139	0x3dbcb725	0.092146195
140	0x3e3663d9	0.17811526
141	0xbe771210	-0.24127984
142	0x3e8f8a16	0.2803504
143	0xbd54ff2d	-0.052001167
144	0xbc5629a8	-0.013071455
145	0x3e6d8b57	0.23197685
146	0xbb9e968c	-0.004839724
147	0xbe9f2921	-0.31086066
148	0x3e8c69ec	0.27424562
149	0xbdd327ee	-0.1031035
150	0x3eb86586	0.36014956
151	0xbe4eb3d7	-0.20185791
152	0xbe3fb0a9	-0.18719734
153	0x3ea5d533	0.3238922
154	0x3e622414	0.22084075
155	0x3efc39ae	0.49262756
156	0xbe1eeb84	-0.1551953
157	0x3cd13ab9	0.025540696
158	0x3e7db528	0.24776137
159	0x3d6eefa9	0.058334026
160	0x3dc2b97b	0.09508034
161	0x3f0215f1	0.5081473
162	0x3e10081b	0.14065592
163	0xbe8323d9	-0.25613287
164	0x3d2af476	0.041737042
165	0x3e8959f8	0.26826453
166	0x3e04376d	0.12911768
167	0x3d4574e6	0.048207186
168	0xbdaa1bf5	-0.08306114
169	0xbe1112e0	-0.14167356
170	0xbd0418b7	-0.032250132
171	0xbdabde02	-0.08391954
172	0xbdb73955	-0.08946482
173	0x3d86350d	0.065530874
174	0xbd6e8d55	-0.058240253
175	0x3dbcb693	0.09214511
176	0x3cfc70b5	0.030815462
177	0x3e41038f	0.18849014
178	0xbe2d529d	-0.16926046
179	0xbdbda336	-0.09259646
180	0x3d8b2e44	0.06795934
181	0x3dcefc33	0.10106697
182	0xbdf94820	-0.1217196
183	0x3e92283f	0.2854633
184	0x3ee64d94	0.44981062
185	0x3d20e89b	0.03928433
186	0x3e422162	0.18958047
187	0x3d4083c5	0.047000665
188	0xbe094eb7	-0.13408934
189	0x3e633006	0.22186288
190	0x3df47c37	0.119377546
191	0xbea8efec	-0.32995546
192	0xbda1b274	-0.07895365
193	0xbd9b2a8e	-0.07576476
194	0x3d42baa1	0.047541264
195	0x3d8b50f4	0.0680255
196	0xbc6e4982	-0.014543893
197	0xbd105e60	-0.035246253
198	0xbe033346	-0.12812528
199	0xbde93cd6	-0.11388557
200	0xbdc034bc	-0.09385058
201	0xbdbd8c42	-0.09255268
202	0xbdb59cec	-0.08867821
203	0xbc96f427	-0.018426968
204	0xbdcc86b9	-0.09986634
205	0x3d8ca0ca	0.068666056
206	0x3d979601	0.07401658
207	0xbd948ac1	-0.07253028
208	0xbd23175d	-0.039817203
209	0x3c79ffe9	0.015258768
210	0xbdf1e8bf	-0.11811971
211	0x3d734dcf	0.059400376
212	0x3dd2b145	0.10287718
213	0x3e06ae91	0.1315253
214	0xbdac6031	-0.084167846
215	0x3dcf272c	0.10114893
216	0xbdcbf9be	-0.09959744
217	0x3d091e22	0.033476003
218	0x3d94250b	0.07233628
219	0xbd01f8fd	-0.031731594
220	0x3dde2d53	0.10848489
221	0x3d79535a	0.060870506
222	0xbd468082	-0.0484624
223	0x3d2ef82b	0.04271714
224	0xbddd74fa	-0.10813327
225	0x3c8a8c40	0.01691258
226	0xbc3b2972	-0.011423456
227	0xbd9369ab	-0.07197889
228	0xbe1fc71b	-0.15603296
229	0xbdedb920	-0.116075754
230	0xbdb6fdd8	-0.089351356
231	0x3c9a5490	0.01883915
232	0x3d08c5c8	0.033391744
233	0xbe0ea15e	-0.13928744
234	0xbdc82c31	-0.09774054
235	0xbdb263d9	-0.08710451
236	0x3da31a9c	0.0796406
237	0xbda366a9	-0.07978565
238	0xbc88fba8	-0.016721562
239	0xbc48f23f	-0.012264787
240	0xbdda4ca5	-0.1065915
241	0xbd1c6319	-0.038180444
242	0x3d5b0c3c	0.053478464
243	0xbc07f24d	-0.008297515
244	0x3e195029	0.14971985
245	0xbd7fbad8	-0.062434047
246	0x3d20eba9	0.039287243
247	0x3dafbba4	0.085807115
248	0xbd5fa42c	-0.054599926
249	0xbc7176d7	-0.014737806
250	0xbc031d59	-0.0080026025
251	0xbdc324c9	-0.095285006
252	0xbcab01df	-0.020874916
253	0xbd447693	-0.047964644
254	0xbd8426ba	-0.06452699
255	0x3dd2202f	0.10260045

fc2.bias f4 [32]
0	0x3eb30b34	0.34969485
1	0x3ddf7db8	0.10912651
2	0xbe86744b	-0.262606
3	0xbe2c027e	-0.16797826
4	0xbe075752	-0.13216904
5	0xbe02509e	-0.12726066
6	0x3f1830fb	0.5944974
7	0x3e70f9c5	0.2353278
8	0xbdf88caf	-0.12136208
9	0x3ea38b9d	0.31942454
10	0xbe114fe0	-0.14190626
11	0xbe6f8031	-0.23388745
12	0x3de957ff	0.11393737
13	0x3efe24b2	0.4963737
14	0x3ee9406e	0.45556968
15	0xbea8f953	-0.3300272
16	0x3d487df9	0.048948262
17	0x3dab0a23	0.08351543
18	0xbd3b1bba	-0.04568074
19	0xbd95356b	-0.07285579
20	0x3e68fe6d	0.22753306
21	0xbdaaf4a3	-0.08347442
22	0x3ec285ae	0.37992615
23	0xbcacfb61	-0.02111596
24	0x3ec3ddf4	0.38255274
25	0xbdd0ef62	-0.10201909
26	0x3d933337	0.07187503
27	0x3a01b2fc	0.000494763
28	0xbde6e88d	-0.11274824
29	0x3eeccc01	0.46249393
30	0x3ea28f41	0.3174992
31	0x3ea235ac	0.31681573

output.weight f4 [4, 32]
0	0x3e5e848f	0.21730255
1	0x3f10a6a2	0.5650426
2	0xbe8140fa	-0.25244886
3	0xbcd6bf2e	-0.026214208
4	0xbeabf46f	-0.33584926
5	0x3d850521	0.06495119
6	0x3e9a616a	0.30152446
7	0x3f0c8137	0.54884666
8	0x3db5f23b	0.088840924
9	0x3e7faed3	0.24969034
10	0xbe876b8e	-0.26449245
11	0xbe913ae5	-0.28365245
12	0x3e472dd5	0.19451077
13	0x3e8572a3	0.26064023
14	0x3da76b1a	0.08174725
15	0xbdf8f94d	-0.12156925
16	0x3cc2fcd7	0.023802204
17	0x3e8350c1	0.25647548
18	0x3e949c54	0.2902552
19	0xbd16d3a8	-0.036822945
20	0x3d8d4327	0.06897574
21	0x3d667c16	0.05627068
22	0x3df48ee6	0.11941318
23	0x3e0d5535	0.13802035
24	0x3e018c78	0.12651241
25	0xbd0dceaf	-0.034620937
26	0x3d792066	0.060821913
27	0x3e8a040d	0.26956216
28	0xbe1d35b7	-0.15352522
29	0x3ea18660	0.31547832
30	0x3e4fb4a8	0.20283759
31	0xbf44143b	-0.7659337
32	0x3e8ec2f6	0.27883118
33	0x3e84ad3a	0.2591341
34	0xbe8bee7c	-0.27330387
35	0xbd0becfa	-0.034161545
36	0xbdfa3003	-0.12216189
37	0x3e4e9ce4	0.20177037
38	0x3dba123a	0.09085508
39	0x3e901dff	0.28147885
40	0x3e218364	0.15772778
41	0xbd04be39	-0.032407973
42	0xbea62ff2	-0.32458454
43	0xbd60c956	-0.05487951
44	0x3e30eee1	0.17278625
45	0x3e822309	0.25417355
46	0x3e937659	0.2880123
47	0xbe9f1d11	-0.31076863
48	0x3e6e400f	0.23266624
49	0x3ef6d3fc	0.48208606
50	0x3da7de6c	0.081967205
51	0x3e3ed920	0.18637514
52	0x3d839dd0	0.06426585
53	0xba8f8932	-0.0010950922
54	0x3ea5c4e6	0.32376784
55	0x3eab88ac	0.3350271
56	0x3ea6a8a6	0.32550544
57	0xbc184db8	-0.009295873
58	0x3e96f7ac	0.29485834
59	0x3e3d8f8c	0.1851179
60	0x3d424c5a	0.047436096
61	0x3e5a599e	0.21323249
62	0x3cd2d010	0.025733978
63	0x3de3f525	0.11130742
64	0x3e1983f9	0.1499175
65	0x3e6dd3ba	0.23225299
66	0xbe7506fc	-0.23928446
67	0xbdf7810d	-0.12085161
68	0x3d4d51fb	0.05012701
69	0x3d22b040	0.039718866
70	0x3ea0ef6b	0.3143266
71	0x3e15876d	0.14602442
72	0x3c8ed760	0.017436683
73	0x3e00d7e5	0.12582357
74	0xbec4d45b	-0.38443264
75	0xbeec56bc	-0.46159923
76	0xbdeb36a8	-0.11485034
77	0x3e4dfc5e	0.20115802
78	0x3e5f59ae	0.21811554
79	0xbe39c96f	-0.18143247
80	0x3d37e0f9	0.044892285
81	0x3ec2afda	0.3802479
82	0xbe1388a0	-0.14407587
83	0x3edb9689	0.42888287
84	0x3edd6d97	0.43247673
85	0x3e0df503	0.13862996
86	0x3e6eb8c2	0.23312667
87	0x3be81b9e	0.0070833704
88	0x3d767283	0.0601678
89	0x3d754d0e	0.05988794
90	0xbdc5547e	-0.09635256
91	0xbe88b183	-0.2669793
92	0xbe14415f	-0.14478062
93	0x3ea2ebcb	0.3182052
94	0x3e5596b1	0.20858265
95	0xbda107d4	-0.07862821
96	0xbb2e0898	-0.0026555415
97	0x3ee5cdb8	0.44883513
98	0xbeb75593	-0.35807475
99	0x3b89e6e4	0.0042084325
100	0xbf194dc6	-0.598843
101	0xbe4337c6	-0.19064245
102	0x3ea2aaf0	0.3177104
103	0x3eb7777b	0.35833344
104	0xba1377da	-0.0005625464
105	0x3e1db0b8	0.15399444
106	0x3d69fbb4	0.05712481
107	0x3d315ff7	0.04330441
108	0x3f13c52d	0.5772274
109	0x3cadb0d6	0.021202486
110	0x3e9950a2	0.2994433
111	0xbe984429	-0.29739502
112	0xbdab2c8e	-0.083581075
113	0x3e3539e7	0.17697869
114	0xbe5e2608	-0.21694195
115	0x3e0e5414	0.13899261
116	0xbbbbade8	-0.0057275183
117	0xbca46e03	-0.020071989
118	0x3e41bf95	0.18920739
119	0xbe4acc21	-0.19804431
120	0x3e95c7d0	0.29254007
121	0xbdcba115	-0.09942833
122	0xbe308e74	-0.17241842
123	0xbeb42a0c	-0.3518833
124	0xbe11ff26	-0.14257488
125	0x3e9be02f	0.30444476
126	0x3e984426	0.29739493
127	0xbee739cc	-0.45161283

output.bias f4 [4]
0	0x3ec20dd9	0.3790119
1	0x3ec5281a	0.38507158
2	0x3e940a4a	0.289141
3	0x3eb7fa20	0.35933018
